test/memoryadvice/memoryadvice/src/main/resources/realtime.tflite (tflite, 2988 bytes, 5 tensors)

dense/bias f4 [64]
0	0x3d819206	0.0632668
1	0x3e73099d	0.23734136
2	0xbde99a96	-0.11406438
3	0x3c93974a	0.018016476
4	0x3c819161	0.015816392
5	0xbddb69de	-0.10713552
6	0xbd388969	-0.04505292
7	0xbd80c935	-0.06288377
8	0x3d7262a3	0.0591761
9	0xbcf1b8b0	-0.029507011
10	0x3d8a7644	0.06760839
11	0xbe7c5319	-0.24641074
12	0xbdba1c61	-0.09087444
13	0x3d65971d	0.056052316
14	0xbcc5c09d	-0.024139697
15	0xbe3e1daf	-0.18566011
16	0x3cbb0ac8	0.02283229
17	0xbdf2447b	-0.11829468
18	0x3dde3c76	0.10851376
19	0xbb4ee460	-0.0031569228
20	0xbe5da0cf	-0.21643375
21	0x3c96ce4a	0.018408913
22	0x3d4305e9	0.04761306
23	0xbde5e678	-0.11225599
24	0xbcc35715	-0.023845235
25	0xbd034a42	-0.03205324
26	0x3d05d4bb	0.03267358
27	0xbd5fbba1	-0.054622296
28	0x3d876a07	0.0661202
29	0x3d29c3fa	0.041446663
30	0xbd95c110	-0.073122144
31	0xbd93a366	-0.072089
32	0x3e76537d	0.24055286
33	0xbdb7b6f8	-0.089704454
34	0xbda04fe8	-0.07827741
35	0x3d99b9a2	0.0750611
36	0x3c0d025e	0.008606521
37	0xbe618e4a	-0.22026935
38	0xbe7dbfe8	-0.24780238
39	0x3dcd3cf5	0.10021392
40	0x3e4397b0	0.19100833
41	0x3ca773cc	0.020440958
42	0x3d90c46a	0.07068713
43	0xbd4c4079	-0.049866173
44	0x3e56bc22	0.20970204
45	0x3dab6df3	0.083705805
46	0x3de87289	0.11349971
47	0xbc6835d9	-0.0141729945
48	0x3daadeb2	0.08343257
49	0xbd004b3e	-0.031321757
50	0x3e3b4e0a	0.18291488
51	0xbd0fede7	-0.03513899
52	0xbdc1754e	-0.09446202
53	0x3d97c99e	0.07411502
54	0xbcd6485e	-0.026157554
55	0x3e69360b	0.22774522
56	0xbca9d238	-0.020730123
57	0x3e25b99a	0.16184083
58	0xbdc053aa	-0.09390958
59	0xbc913e2b	-0.01772984
60	0xbddc5d1e	-0.10759948
61	0xbe00c867	-0.12576447
62	0x3dcce655	0.1000487
63	0x3e0757f3	0.13217144

std.constant f4 [1, 3]
0	0x4e08feb8	5.7459866e+08
1	0x4e3c4e87	7.8981574e+08
2	0x430b561d	139.33638

std.constant1 f4 [1, 3]
0	0x4e274464	7.015693e+08
1	0x4e43a2d9	8.205574e+08
2	0x433c5677	188.33775

std.constant2 f4 [64, 3]
0	0xbec1ca66	-0.3784973
1	0x3db04632	0.08607139
2	0xbe0797f3	-0.13241558
3	0x3e8bc51f	0.2729883
4	0x3e94123d	0.28920165
5	0xbe3c69f6	-0.18399796
6	0xbe44660c	-0.19179553
7	0xbe1b33cd	-0.15156479
8	0xbdc00074	-0.093750864
9	0x3e534be0	0.20634413
10	0x3d1992db	0.037493568
11	0xbda4763e	-0.080303654
12	0x3db9c9e9	0.090717144
13	0xbcc1575d	-0.023601228
14	0xbe45fa2c	-0.19333714
15	0x3d6f4cb1	0.058422748
16	0xbe2e71c6	-0.17035589
17	0xbd70a759	-0.058753345
18	0xbe660c81	-0.22465707
19	0x3b6ae284	0.003584058
20	0xbdba3b11	-0.09093297
21	0x3cfeda74	0.031110026
22	0x3dbe8977	0.09303563
23	0x3dc9cb60	0.09853244
24	0x3d63e57c	0.055638775
25	0x3e80a506	0.25125903
26	0xbe5453ff	-0.20735167
27	0x3de9b26e	0.11410986
28	0xba907704	-0.0011021798
29	0x3dd69195	0.10476986
30	0xbe641551	-0.22273757
31	0xbded68a7	-0.115922265
32	0xbc70eec2	-0.014705362
33	0xbe8eda28	-0.27900815
34	0x3d94998a	0.07255848
35	0x3e7e2ebb	0.24822514
36	0x3e11f281	0.14252664
37	0x3e644154	0.22290546
38	0x3e6be663	0.23037104
39	0xbe6a540b	-0.22883622
40	0xbc5e6420	-0.013573676
41	0x3e520f24	0.20513588
42	0xbd63d2a7	-0.055620816
43	0x3e709349	0.23493685
44	0x3e8b9a25	0.2726604
45	0xbe2dfd0a	-0.16991058
46	0xbcb978ad	-0.02264055
47	0x3e1c5420	0.15266466
48	0x3dac58b6	0.08415358
49	0x3db9445c	0.09046242
50	0xbe980e2e	-0.29698318
51	0xbd164716	-0.036688887
52	0x3eacd036	0.33752602
53	0x3e62c15d	0.22144075
54	0x3dbadf52	0.09124626
55	0xbea77834	-0.32708895
56	0xbd4aaa29	-0.049478684
57	0x3ead5044	0.338503
58	0xbe82086e	-0.25397056
59	0xbe29f9d2	-0.16599205
60	0xbdb16eea	-0.08663733
61	0xbe1ad892	-0.15121678
62	0x3e7f01d9	0.24903049
63	0x3e17226b	0.14759223
64	0xbe50266f	-0.20327161
65	0x3e9ba755	0.30401102
66	0xbe81a70c	-0.2532276
67	0x3e50d540	0.20393848
68	0xbe30d13d	-0.17267318
69	0x3eaa14ad	0.332189
70	0x3da1484e	0.07875119
71	0x3d9fd1f2	0.07803716
72	0xbea6970f	-0.32537124
73	0x3e3fc37f	0.1872692
74	0x3e2d4a89	0.16922964
75	0xbcc7f416	-0.024408381
76	0x3cc3a297	0.02388124
77	0xbe0f7ec9	-0.14013208
78	0xbe8a5b88	-0.27022958
79	0xbd2612d2	-0.040545292
80	0xbe5eb032	-0.217469
81	0x3e87e1db	0.26539502
82	0xbccd7bd8	-0.025083467
83	0xbd324c22	-0.043529637
84	0xbdf6dc7b	-0.12053772
85	0xbd845665	-0.06461791
86	0xbda1d7c1	-0.0790248
87	0xbdaee224	-0.08539227
88	0x3e882eb6	0.26598138
89	0xbd06be0e	-0.032896094
90	0xbd6868b4	-0.056740478
91	0xbda31b73	-0.0796422
92	0xbe9b2f4b	-0.3030952
93	0xbdb0122d	-0.08597217
94	0xbd3611d8	-0.04445061
95	0x3cccd948	0.025005952
96	0x3e746044	0.23864847
97	0x3e69cd32	0.22832182
98	0x3e37a83f	0.17935275
99	0xbe801d8b	-0.2502254
100	0x3e3b551b	0.18294184
101	0x3c067b44	0.0082081
102	0x3db6dfc5	0.089293994
103	0x3e670499	0.22560348
104	0x3e5a72a1	0.2133279
105	0x3e1d6cf7	0.15373598
106	0xbe0536cf	-0.13009189
107	0xbeb7e072	-0.35913426
108	0xbe731557	-0.23738609
109	0xbd920411	-0.07129682
110	0xbdc2c114	-0.09509483
111	0xbe616ab7	-0.22013365
112	0x3ba2ccb2	0.0049682492
113	0x3e47a27d	0.19495578
114	0xbd1b610b	-0.037934344
115	0x3da7e751	0.08198417
116	0x3e704f2d	0.23467703
117	0xbcd10fee	-0.025520291
118	0xbeb0d4a8	-0.34537244
119	0x3e85c631	0.2612777
120	0x3d5399ea	0.051660456
121	0xbe415853	-0.1888135
122	0xbd850dac	-0.06496748
123	0xbe759164	-0.23981243
124	0xbe2aa695	-0.16665109
125	0x3c1ba696	0.009500166
126	0x3e5ecbdd	0.21757455
127	0x3e0832fc	0.13300699
128	0xbe3e1137	-0.18561254
129	0x3e0d8ab1	0.13822438
130	0x3e712c48	0.23552048
131	0xbec62c66	-0.38705748
132	0xbdd0d012	-0.10195936
133	0x3eca2e60	0.39488506
134	0x3d83f063	0.064423345
135	0xbdc9c47b	-0.09851929
136	0xbd8658bf	-0.06559896
137	0x3e0fb5c4	0.14034182
138	0x3e2a6d9b	0.16643374
139	0x3d47c7bf	0.048774477
140	0x3ddfe8d2	0.10933079
141	0xbe80f901	-0.25189975
142	0x3e2fca21	0.1716695
143	0x3ea4a918	0.32160258
144	0xbe390921	-0.18069889
145	0xbdf19bff	-0.11797332
146	0x3e85acef	0.261085
147	0x3de0e197	0.10980528
148	0x3d14c65b	0.03632198
149	0xbe78a010	-0.24279809
150	0x3deddb27	0.116140656
151	0xbe28e6c1	-0.16494276
152	0xbd89fdee	-0.06737886
153	0xbcae6cf3	-0.021292185
154	0xbdd03b69	-0.101675816
155	0xbd030e73	-0.0319962
156	0xbe249f85	-0.16076477
157	0x3d5ad47d	0.0534253
158	0xbd205ed1	-0.039152924
159	0x3e80507a	0.250614
160	0xbeaf2fce	-0.3421616
161	0xbd8f7061	-0.070038565
162	0xbe256c9a	-0.1615471
163	0xbeb188dd	-0.3467473
164	0x3e95106f	0.291141
165	0x3ea5a7a3	0.3235446
166	0x3e7e1dd4	0.24816066
167	0xbe59a8c2	-0.21255782
168	0xbea0f5d0	-0.3143754
169	0xbd874f90	-0.06606972
170	0x3e00e860	0.12588644
171	0x3e6b20ea	0.22961774
172	0x3da21152	0.0791346
173	0xbdb2510c	-0.08706865
174	0x3ea43767	0.3207352
175	0x3e2a2d6f	0.16618894
176	0xbe684fc7	-0.22686683
177	0xbcfdb3be	-0.030969497
178	0x3e3ec010	0.18627954
179	0xbea8c0aa	-0.3295949
180	0x3e20a6aa	0.15688577
181	0x3d58a12a	0.052888073
182	0x3e24c2fe	0.16090009
183	0xbe4d7111	-0.20062663
184	0x3e8e35eb	0.2777551
185	0xbe9844fe	-0.29740137
186	0xbe17f090	-0.14837861
187	0xbe952aca	-0.29134208
188	0x3d8bda1e	0.06828712
189	0x3e4ac328	0.19801009
190	0x3d9c841e	0.07642387
191	0x3d94b3d2	0.072608605

std.constant3 f4 [1, 64]
0	0x3e550057	0.20800911
1	0x3e16a514	0.1471141
2	0xbb87cdfc	-0.0041444283
3	0xbe873e5f	-0.26414773
4	0x3cf5e843	0.030017978
5	0x3d6f82d7	0.058474388
6	0xbd2c8ac5	-0.04212453
7	0xbdec5d37	-0.11541217
8	0xbe6826f2	-0.22671106
9	0xbe51bf86	-0.20483217
10	0x3e8591f9	0.2608793
11	0xbe8b3e9f	-0.27196214
12	0xbd568619	-0.05237398
13	0x3e416c5b	0.1888899
14	0x3d95b476	0.07309811
15	0xbe85a9d4	-0.2610613
16	0xbe0e57bf	-0.1390066
17	0xbe1adde7	-0.15123712
18	0x3dce6d88	0.10079485
19	0x3e63d369	0.22248615
20	0xbea91af5	-0.3302838
21	0x3e89aa36	0.26887673
22	0x3e82d22d	0.25550976
23	0xbe20bec7	-0.15697776
24	0x3e0cb4ca	0.1374084
25	0xbbeb386a	-0.007178356
26	0xbdebd300	-0.115148544
27	0xbeaa2fdd	-0.33239642
28	0x3e55e25b	0.20887129
29	0x3e89873c	0.26860988
30	0xbe8bc4e0	-0.2729864
31	0x3bc5ffa3	0.006042437
32	0x3e426bf5	0.18986495
33	0xbf0d904c	-0.55298305
34	0xbd35f1c9	-0.044420037
35	0xbe646db6	-0.22307476
36	0x3e5704f8	0.20997989
37	0xbebea958	-0.37238574
38	0xbe9f841d	-0.31155482
39	0x3e7bed78	0.24602306
40	0x3e334426	0.17506465
41	0x3e52b154	0.20575458
42	0x3e7e0d2c	0.24809712
43	0xbe800011	-0.2500005
44	0x3e19c3a1	0.15016033
45	0x3d9797c9	0.074019976
46	0x3e43b535	0.19112094
47	0x3e2e50ee	0.1702306
48	0x3ea80279	0.32814386
49	0x3e3d16f5	0.18465789
50	0x3e78f1ab	0.24310939
51	0xbe15c45d	-0.14625688
52	0x3bc913a4	0.0061363745
53	0xbe62e48f	-0.221575
54	0x3da506ff	0.08057975
55	0x3deacf94	0.11465374
56	0xbe528f0c	-0.2056238
57	0x3e932732	0.2874084
58	0xbe562b17	-0.20914875
59	0xbe28fd33	-0.16502838
60	0xbdadbbf3	-0.08483114
61	0xbe87ba01	-0.26509097
62	0x3d622727	0.05521312
63	0x3e3bab13	0.18326978
